examples/recsys_models/logistic_regression/logistic_regression_simple.pt (torch, 6319 bytes, 5 tensors)

layer.0.weight f4 [28, 3]
0	0xbe8f63ce	-0.28005832
1	0xbdf13f5b	-0.11779662
2	0xbdf1b977	-0.11802953
3	0xbf134004	-0.57519555
4	0xbe8b7abb	-0.27242073
5	0xbe7a784f	-0.24459957
6	0x3f104d72	0.5636817
7	0xbe4aef22	-0.19817784
8	0x3c82f5ca	0.015986342
9	0xbee934e2	-0.4554816
10	0xbeb4350a	-0.35196716
11	0xbe56e70c	-0.20986575
12	0x3e4c0571	0.1992395
13	0x3e2ef4ca	0.17085567
14	0xbe8b98b0	-0.2726493
15	0xbef7b20e	-0.48378032
16	0xbe191643	-0.14949898
17	0xbe182182	-0.14856532
18	0xbf184e60	-0.5949459
19	0xbd4f13bf	-0.05055594
20	0x3e96992b	0.29413733
21	0x3ebc48d0	0.36774302
22	0xbdb8d5c6	-0.09025149
23	0xbe47eae8	-0.19523203
24	0xbe288fc7	-0.16461097
25	0x3eb47870	0.35248137
26	0x3e428c8e	0.1899893
27	0x3ef09115	0.4698569
28	0x3dca099e	0.098651156
29	0xbe4b4b50	-0.19852948
30	0xbf4cb8d9	-0.79969555
31	0x3e3e2cb7	0.18571745
32	0xbd876e20	-0.066128016
33	0xbef0531c	-0.46938407
34	0x3e0826ed	0.13296099
35	0x3dd7ad53	0.10531106
36	0x3ea9956b	0.3312181
37	0x3ebba96e	0.36652702
38	0xbe3cc3c9	-0.18434061
39	0x3db6c9d8	0.089252174
40	0xbe9fa86c	-0.31183183
41	0xbe124f66	-0.142881
42	0x3f107f26	0.56444013
43	0xbc4b11df	-0.0123943975
44	0xbcfab11c	-0.03060203
45	0x3e251ec2	0.16125014
46	0xbea61677	-0.32439014
47	0x3cf9c4db	0.030489376
48	0xbdbd1515	-0.09232537
49	0x3c75db3f	0.015005886
50	0xbdda9a52	-0.106739655
51	0x3dc60edf	0.09670805
52	0xbd183ffa	-0.037170388
53	0xbccee904	-0.025257595
54	0x3e328001	0.17431642
55	0x3d5a8272	0.05334706
56	0x3e9e8685	0.30962005
57	0xbe96d1e5	-0.29457012
58	0xbe97ba49	-0.29634312
59	0xbdde5f4c	-0.1085802
60	0x3ee8733b	0.45400414
61	0x3cfac6e9	0.030612426
62	0xbe5de359	-0.21668757
63	0x3f060624	0.5235312
64	0xbd1c2007	-0.03811648
65	0x3e900a1b	0.2813271
66	0xbe0745eb	-0.13210265
67	0x3d568f9d	0.052383054
68	0x3e51ce86	0.20488939
69	0x3eb6d246	0.357073
70	0xbe47cdb7	-0.19512068
71	0x3e625105	0.22101219
72	0xbdbe25f6	-0.09284584
73	0xbd8ecb28	-0.06972343
74	0xbea953d0	-0.33071756
75	0xbe3dca43	-0.18534188
76	0x3d6d4b5c	0.057933196
77	0xbe3dd0d0	-0.18536687
78	0x3eec911b	0.46204457
79	0xbe8140b4	-0.25244677
80	0xbdcdc323	-0.10046985
81	0x3e7f5af8	0.24937046
82	0xbe4875e0	-0.19576216
83	0x3e4da4de	0.20082423

layer.0.bias f4 [28]
0	0xbe8846e9	-0.266166
1	0x3ea7aac0	0.3274746
2	0x3d713f37	0.058898177
3	0xbe708c2c	-0.23490971
4	0x3e28362a	0.16426912
5	0x3f0caf44	0.54954934
6	0x3e95debe	0.292715
7	0xbecb0a01	-0.3965607
8	0xbe00ad85	-0.12566192
9	0x3e8bcb55	0.27303568
10	0x3f14087e	0.5782546
11	0xbc6d2a8b	-0.014475475
12	0x3bff363a	0.0077884467
13	0xbd2a1499	-0.04152355
14	0x3ee99eab	0.45628867
15	0xbeb77a87	-0.35835668
16	0x3d903bf7	0.070426874
17	0xbdefa0b8	-0.117005765
18	0xbd524233	-0.051332664
19	0x3ecb757d	0.39738074
20	0x3df85a3b	0.12126585
21	0x3f1863fa	0.5952755
22	0xbcd9bc25	-0.026578972
23	0xbe5ab2d4	-0.2135728
24	0xbd861d14	-0.06548515
25	0xbe26ad78	-0.1627711
26	0x3f04b16e	0.51833236
27	0x3e14a486	0.14515886

layer.2.weight f4 [28, 28]
0	0x3d9625cd	0.07331429
1	0x3a2ca01c	0.00065851375
2	0x3c0bc6ed	0.008531314
3	0xbd8ac8f9	-0.06776614
4	0x3df8c087	0.12146097
5	0x3cc2db98	0.023786351
6	0x3db9e7b5	0.09077398
7	0x3c942022	0.018081728
8	0x3dfe3719	0.12412853
9	0x3dd3859e	0.1032822
10	0xbd80e7bd	-0.062942006
11	0xbc18282c	-0.0092869215
12	0xbdcb7042	-0.09933521
13	0x3d8f34df	0.06992506
14	0x3d57fecf	0.05273324
15	0xbd6f5aac	-0.05843608
16	0x3dacfcac	0.08446631
17	0xbce59102	-0.028023247
18	0x3c257a6c	0.010099988
19	0x3ab3a579	0.0013705931
20	0x3c2b0845	0.010438983
21	0xbdbf94e2	-0.09354569
22	0xbd7d3bd6	-0.061824642
23	0xbdcaaabe	-0.09895848
24	0xbabe19e8	-0.001450357
25	0xbd5dd93f	-0.05416226
26	0xbd285d72	-0.04110474
27	0x3c68250c	0.014168989
28	0x3da44451	0.08020843
29	0x3c64869a	0.013948107
30	0x3d76174c	0.06008081
31	0xbc89af66	-0.01680727
32	0x3e016821	0.12637378
33	0xbcb99899	-0.022655772
34	0x3d8ff22a	0.07028611
35	0xbdb7e5ea	-0.089793995
36	0x3d4545fe	0.048162453
37	0x3d157bdf	0.036495086
38	0xbe1e15c6	-0.15437993
39	0x3d38aaf0	0.045084894
40	0x3c16b788	0.009199031
41	0x3c448e9b	0.01199689
42	0x3d862d3f	0.06551599
43	0xbd86dec2	-0.065854564
44	0xbd155c14	-0.036464766
45	0x3ca63816	0.020290416
46	0x3dcd59de	0.100269064
47	0xbd0536bb	-0.0325229
48	0x3e0609ba	0.13089648
49	0xbcc1236b	-0.023576459
50	0x3de92788	0.11384493
51	0x3d676d4e	0.056500725
52	0xbd9f7f0d	-0.07787905
53	0x3c7d7d34	0.015471745
54	0x3e2ac82a	0.16677919
55	0x3e05415b	0.13013212
56	0xbde575b0	-0.11204088
57	0xbbaa5c42	-0.0051989863
58	0xbc83f2ba	-0.016106952
59	0x3d68620c	0.05673413
60	0x3d155efd	0.03646754
61	0x3c6df6a5	0.014524137
62	0xbd54a187	-0.051911857
63	0x3d8aa360	0.067694426
64	0x3da7a666	0.08186035
65	0x3dbbb6f3	0.09165754
66	0xbd8df8e7	-0.0693224
67	0xbcdc0aac	-0.026860557
68	0xbacc143b	-0.0015569994
69	0x3dcfbaad	0.101430275
70	0xbad6f3ba	-0.001639954
71	0xbc2248bf	-0.009905039
72	0xbd076607	-0.033056285
73	0x3d9ca42f	0.07648503
74	0x3d590126	0.05297961
75	0x3a5b906a	0.00083757064
76	0x3d0f0ef7	0.03492638
77	0xbcd8ebf8	-0.026479706
78	0xbd885f82	-0.06658842
79	0x3ca897f1	0.020580264
80	0xbd91255d	-0.070872046
81	0x3c517a0e	0.012785448
82	0x3ce44446	0.027864587
83	0xbd41e1cb	-0.047334474
84	0xbce3f978	-0.027828917
85	0x3dacae99	0.08431739
86	0xbd79cafb	-0.060984593
87	0xbdbbdae0	-0.091726065
88	0xbd049db3	-0.032376956
89	0xbe015087	-0.12628375
90	0x3ddbcf04	0.107328445
91	0xbdd5496b	-0.10414394
92	0x3d3a2b00	0.045451164
93	0x3d7631a2	0.060105927
94	0xbe03bcdd	-0.12865014
95	0x3dc10182	0.09424116
96	0x3c7e3693	0.015515941
97	0xbdb79aff	-0.0896511
98	0xbd07096c	-0.03296797
99	0xbe00a101	-0.12561418
100	0x3dcf9e84	0.10137656
101	0x3d84b2f3	0.06479444
102	0xbd18b881	-0.03728533
103	0xbd58ea8f	-0.052958068
104	0x3dbfef1f	0.093717806
105	0x3e162d58	0.14665735
106	0x3ca7b0c6	0.020470034
107	0xbd12836e	-0.035769872
108	0x3c2d23e8	0.010567643
109	0xbcf9f76d	-0.03051349
110	0x3cdefe67	0.027220918
111	0xbd983122	-0.07431246
112	0xbd027f4b	-0.031859677
113	0xbd986f33	-0.074430846
114	0xbde839fe	-0.11339186
115	0xbcc90374	-0.02453778
116	0xbcd2bbfa	-0.0257244
117	0xbd550845	-0.05200984
118	0xb9d629bf	-0.00040848364
119	0x3db6700e	0.089080915
120	0xbdd56d29	-0.10421211
121	0xbb201484	-0.002442629
122	0xbd634760	-0.05548799
123	0xbcf50165	-0.029907892
124	0x3d7003a1	0.05859721
125	0xbdd7df7b	-0.105406724
126	0xbd338513	-0.04382808
127	0x3d85cfa2	0.065337434
128	0xbd88c956	-0.06679027
129	0xbdcddcca	-0.10051878
130	0xbd9e96c3	-0.07743599
131	0xbd89e8f7	-0.06733888
132	0xbc89a47c	-0.016802065
133	0x3ca62a7d	0.020283932
134	0x3c81968c	0.015818857
135	0xbd97ff82	-0.07421781
136	0xbdf546ed	-0.11976419
137	0xbde9d87b	-0.114182435
138	0xbbd0bd49	-0.006370221
139	0x3da577b6	0.08079474
140	0x3b52b2d5	0.003215005
141	0xbc8b6f05	-0.017020712
142	0xbbd504ce	-0.006500817
143	0xbdd7c61e	-0.10535835
144	0xbdb39f43	-0.08770611
145	0x3e0adfca	0.13561931
146	0x3d5dcfe4	0.054153338
147	0x3d27b19d	0.04094087
148	0xbc0b1244	-0.008488242
149	0xbe05f42d	-0.13081427
150	0x3ca2f46b	0.019891938
151	0xbd8bb72e	-0.06822048
152	0x3d3d5391	0.046222273
153	0x3cec7c21	0.028867783
154	0xbd56ee95	-0.052473623
155	0xbd3feeb4	-0.046858504
156	0xbdc34d1d	-0.095361926
157	0x3dcd4a42	0.10023929
158	0x3db028fc	0.08601567
159	0x3dfcde60	0.12347102
160	0xbd12db76	-0.035853826
161	0x3a9bb3c6	0.0011879138
162	0x3d57f11f	0.052720185
163	0x3d16232c	0.036654636
164	0x3d47f118	0.04881391
165	0x3d5f5fce	0.054534726
166	0x3c814010	0.015777618
167	0x3cf0d5b1	0.029398771
168	0xbd64ed38	-0.055890292
169	0xbdb138a8	-0.086533844
170	0x3e19c957	0.15018211
171	0xbdd3f636	-0.103496954
172	0xbcfdb303	-0.030969149
173	0x3b64faa0	0.0034939423
174	0x3b18078e	0.0023197862
175	0x3d927acc	0.07152328
176	0x3d0bde68	0.03414765
177	0x3db1ede0	0.08687949
178	0xbdc2d187	-0.095126204
179	0x3d5317f4	0.051536515
180	0x3db0a753	0.086256646
181	0x3c96679f	0.018359957
182	0x3acd40ca	0.0015659567
183	0xbd891a5b	-0.0669448
184	0xbdc59586	-0.0964766
185	0xbcf0c979	-0.029392945
186	0x3de8af40	0.11361551
187	0xbd8cfd13	-0.068842076
188	0x3e1b2b56	0.1515325
189	0x3dff9707	0.12479978
190	0xbdf4609d	-0.1193249
191	0x3db957ac	0.09049925
192	0x3dfd0abd	0.12355564
193	0xbc26bbad	-0.010176581
194	0x3e171f05	0.14757927
195	0xbd86e349	-0.0658632
196	0x3dcae92b	0.099077545
197	0xbe0dd8d6	-0.13852248
198	0x3e0add04	0.13560873
199	0xbe021ded	-0.12706728
200	0x3c1cd845	0.009573047
201	0x3c629b9e	0.013831047
202	0xbda0ee50	-0.078579545
203	0x3d641af7	0.05568978
204	0xbdf558d6	-0.11979835
205	0xbd728f76	-0.059218846
206	0x3cc4c09d	0.024017626
207	0xbc5520fa	-0.0130083505
208	0xbc4c4a52	-0.012468891
209	0x3c830d24	0.015997477
210	0xbcf54cf8	-0.029943928
211	0xbd5330ed	-0.05156033
212	0x3dad74b8	0.08469528
213	0xbdc4cb1a	-0.09609051
214	0x3d194b47	0.037425306
215	0x3db2eb31	0.087362655
216	0x3e35a71b	0.17739527
217	0x3d8064da	0.06269236
218	0xbd8b152b	-0.06791147
219	0x3e06ad7f	0.13152121
220	0xba44ff96	-0.0007514892
221	0x3de61b91	0.112357266
222	0x3dda8880	0.106705666
223	0x3e0d5274	0.13800985
224	0x3d010d1e	0.03150665
225	0x3b42ad6e	0.0029705423
226	0xbcf24ddf	-0.029578147
227	0x3caf37b0	0.021388859
228	0xbc5678bf	-0.013090312
229	0x3b1e9755	0.0024199088
230	0x3d97a951	0.074053414
231	0x3d8456bc	0.06461856
232	0xbd4eddf2	-0.050504632
233	0x3d5a53ab	0.05330245
234	0x3d88be18	0.066768825
235	0xbe0a9ddc	-0.13536781
236	0xbdb41354	-0.08792749
237	0xbdb2e343	-0.08734753
238	0xbdb5938b	-0.08866032
239	0x3cd1b011	0.02559665
240	0xbda5adca	-0.08089788
241	0xbd6202a0	-0.055178285
242	0x3cc04297	0.023469253
243	0xbe0539b5	-0.13010295
244	0x3c1f4c70	0.009722814
245	0xbc9794df	-0.018503604
246	0x3b33dd9e	0.0027445327
247	0x3dc2dec3	0.09515145
248	0xbd91514b	-0.070955835
249	0xbd30b616	-0.0431424
250	0x3d0a8fb6	0.03382846
251	0x3d8326eb	0.064039074
252	0x3de90c08	0.11379248
253	0xbdbd064f	-0.09229719
254	0x3db5f56f	0.08884703
255	0xbd6afa0a	-0.057367362

layer.2.bias f4 [28]
0	0x3bff1f03	0.0077856793
1	0x3dbfe4d2	0.09369816
2	0x3c02425a	0.00795039
3	0xbdc01f64	-0.09380987
4	0xbd8d0251	-0.068852074
5	0x3d113e16	0.0354596
6	0x3e17bd49	0.148183
7	0x3d5d0ebf	0.05396914
8	0xbbfbf24d	-0.0076887966
9	0x3e33a1c4	0.17542177
10	0x3df6851c	0.12037107
11	0x3e0584eb	0.13038985
12	0x3a787e90	0.00094793085
13	0x3e86afe0	0.26306057
14	0x3d7aeac0	0.06125903
15	0xbc43e2ab	-0.011955897
16	0x3e7d06f9	0.24709691
17	0xbd98dd1b	-0.074640475
18	0x3dbf4350	0.09339011
19	0xbcebaaa9	-0.0287679
20	0x3d2a0022	0.041504033
21	0x3d3ba2c7	0.045809533
22	0x3df2674b	0.11836108
23	0xbd4e9bb5	-0.050441463
24	0x3e42edd3	0.19036035
25	0x3e24b91d	0.1608624
26	0x3e268c7d	0.1626453
27	0xbde82f89	-0.113371916

layer.4.weight f4 [1, 28]
0	0xb7f23374	-2.8872608e-05
1	0x3e4e915d	0.20172639
2	0x3d03adbd	0.03214811
3	0x3e02f69d	0.12789388
4	0xbc03315a	-0.008007372
5	0xbdeeb347	-0.11655288
6	0x3e8d0d66	0.27549285
7	0x3e43f54a	0.19136539
8	0x3d563361	0.052295092
9	0x3ee31580	0.4435234
10	0xbe59e495	-0.21278603
11	0xbef8c875	-0.48590437
12	0x3d8a1821	0.067428835
13	0x3f8fe844	1.1242757
14	0xbe971215	-0.29505983
15	0x3ce93be9	0.02847095
16	0xbf4c4d79	-0.79805714
17	0xbd02aeea	-0.031905092
18	0x3ec6ea90	0.38850832
19	0x3e870ac5	0.26375404
20	0xbddb3eb0	-0.10705316
21	0x3deaabd4	0.11458555
22	0xbf1f9e9a	-0.6235138
23	0xbe2b2bb5	-0.16715892
24	0xbf22f558	-0.63655615
25	0x3ed065ab	0.40702567
26	0xbf021ff5	-0.5083001
27	0xbddbb778	-0.10728353
