examples/recsys_models/logistic_regression/logistic_regression_simple.pt (torch, 6319 bytes, 5 tensors)

layer.0.weight f4 [28, 3]
0	0xbed0379b	-0.40667424
1	0x3ed8491f	0.42243287
2	0x3db07aa5	0.086171426
3	0x3d7eab39	0.06217501
4	0x3e3005b2	0.17189673
5	0xbe3b5316	-0.18293414
6	0x3e5f56e4	0.2181049
7	0x3deb3200	0.11484146
8	0x3d7fa355	0.062411625
9	0xbde6325f	-0.11240076
10	0xbf156f71	-0.5837317
11	0x3d6e5310	0.058184683
12	0x3dc13f5a	0.094359115
13	0x3e8dd11e	0.27698606
14	0x3e10a3c6	0.14124975
15	0xbe5a23b4	-0.21302682
16	0x3e4b4535	0.19850619
17	0x3e92679e	0.2859468
18	0xbe69eaf5	-0.22843535
19	0xbf5a037e	-0.8516158
20	0xbe31cf4e	-0.17364237
21	0x3e89f48f	0.26944396
22	0xbf0c769b	-0.5486848
23	0x3e8bf0c7	0.27332136
24	0x3e8e11b3	0.27747878
25	0xbccf937a	-0.025338877
26	0x3da3ab7b	0.07991692
27	0x3d0b22b2	0.033968635
28	0x3ece6cf2	0.40317494
29	0xbe811949	-0.25214604
30	0x3e183f37	0.14867865
31	0xbd694259	-0.05694804
32	0xbe983d60	-0.29734325
33	0x3d5119ad	0.051049877
34	0x3e0ff789	0.14059271
35	0xbe972bba	-0.29525548
36	0xbe7d4711	-0.24734141
37	0x3e386a3c	0.18009275
38	0xbec56000	-0.38549805
39	0x3da650ef	0.081209056
40	0xbb898b97	-0.0041975486
41	0x3ec923fa	0.3928526
42	0xbe489ccf	-0.19591068
43	0xbdab163b	-0.083538495
44	0xbe013734	-0.12618715
45	0x3e38b8a5	0.18039186
46	0x3f3ae2ec	0.73002505
47	0x3c548dbf	0.012973248
48	0xbe97d9a4	-0.29658234
49	0x3ea441d9	0.32081488
50	0xbe50c789	-0.20388617
51	0x3e4fd1a7	0.2029482
52	0x3e9ccc23	0.30624494
53	0x3e9ff6e1	0.3124304
54	0xbe440996	-0.19144282
55	0x3c31d79d	0.010854629
56	0xbe330b65	-0.17484815
57	0x3d9abd6c	0.075556606
58	0xbef9b191	-0.48768285
59	0x3d40d3bb	0.047076922
60	0x3da0ff02	0.07861139
61	0xbf2de51e	-0.6792773
62	0x3cf19d11	0.02949384
63	0x3deea1c3	0.11651947
64	0x3de09475	0.10965816
65	0xbdaf173a	-0.08549352
66	0x3e080776	0.13284096
67	0xbee75772	-0.45183903
68	0xbe0109fe	-0.12601468
69	0xbe534966	-0.20633468
70	0x3f21086c	0.62903476
71	0x3daf670a	0.08564575
72	0xbe20b623	-0.1569448
73	0xbef5b21e	-0.47987455
74	0xbeaae9b5	-0.3338143
75	0x3ebe0ec8	0.37120652
76	0x3e7bf05f	0.24603413
77	0xbe438707	-0.19094478
78	0xbd4f09db	-0.05054651
79	0xbd26fd02	-0.04076863
80	0xbd940b94	-0.07228771
81	0x3c87fc57	0.016599817
82	0x3da7d217	0.08194368
83	0x3e404ed9	0.18780078

layer.0.bias f4 [28]
0	0xbe8ec898	-0.27887416
1	0x3dad5d15	0.084650196
2	0xbe00f3a8	-0.12592947
3	0x3e8ff03a	0.28112966
4	0xbdd1aaa5	-0.10237626
5	0xbe2e880b	-0.17044084
6	0x3f0802dd	0.5312937
7	0x3e5de2d2	0.21668556
8	0xbdfe901c	-0.124298304
9	0xbeb35fd7	-0.35034057
10	0xbe29d28b	-0.16584222
11	0x3e755c5a	0.2396101
12	0xbe510a0d	-0.2041399
13	0x3db91aeb	0.09038337
14	0xbe6f5397	-0.2337173
15	0x3eb6a8ec	0.35675752
16	0x3e941a05	0.289261
17	0x3eac7cc8	0.3368895
18	0xbe4e122f	-0.20124124
19	0x3e885d4a	0.26633674
20	0x3f052149	0.52003914
21	0xbe018224	-0.12647301
22	0xbdc0bb1c	-0.09410688
23	0x3f1801e7	0.593779
24	0x3e3e8700	0.18606186
25	0x3e765fca	0.24059978
26	0xbcec91e5	-0.028878162
27	0x3e1ba15b	0.15198271

layer.2.weight f4 [28, 28]
0	0x3e309b88	0.1724683
1	0x3e55eb95	0.20890649
2	0xbd8af2a5	-0.06784562
3	0xbd56a3d1	-0.05240232
4	0x3e1d4d0e	0.15361425
5	0x3d9b9dab	0.07598432
6	0xbe6db9f6	-0.2321547
7	0xbe42cf2c	-0.19024342
8	0x3d01f73b	0.031729918
9	0x3d34ee2c	0.04417245
10	0xbd8b9c9a	-0.06816979
11	0x3e24996e	0.16074154
12	0x3d3a1132	0.045426555
13	0x3de35294	0.11099735
14	0xbd1db35a	-0.03850112
15	0x3ee72f36	0.45153207
16	0x3e72b51f	0.23701905
17	0x3e724347	0.23658477
18	0xbdb4e4f4	-0.08832732
19	0xbcd47f99	-0.02593975
20	0xbe2fd3b1	-0.17170598
21	0xbda45531	-0.080240615
22	0xbd5dadcc	-0.054120824
23	0x3f04701b	0.5173356
24	0x3c863dc1	0.016386868
25	0x3e6edc73	0.23326282
26	0x3ddc29cc	0.107501596
27	0xbcf71530	-0.03016147
28	0xbd5a3eb7	-0.053282466
29	0x3d1e4519	0.038640115
30	0xbdb39ecf	-0.08770525
31	0xbd0b3cc9	-0.033993516
32	0xbdba9482	-0.09110357
33	0x3dcbeba8	0.09957057
34	0x3d72f61d	0.059316743
35	0x3e05a21c	0.13050121
36	0xbdce6afa	-0.10078998
37	0xbd08a967	-0.03336468
38	0x3b4c5a65	0.003118181
39	0x3d46053b	0.048344832
40	0xbd2acacb	-0.041697305
41	0xbde9b78b	-0.11411961
42	0xbdcfef0a	-0.10153015
43	0xbe0a60f8	-0.13513553
44	0x3d693dad	0.056943584
45	0x3d624bc0	0.055248022
46	0x3de27713	0.11057868
47	0x3d254f53	0.040358853
48	0x3e15bf6b	0.14623801
49	0xbcda0557	-0.026613874
50	0xbdd6096a	-0.10451014
51	0x3d43fe6a	0.04785005
52	0x3c0cfa9a	0.00860467
53	0x3d88812f	0.06665265
54	0x3dc4c144	0.09607175
55	0x3d89c19b	0.067263804
56	0x3dde6697	0.10859411
57	0x3da7fa9a	0.08202095
58	0xbdada004	-0.08477786
59	0xbd38d84d	-0.045128155
60	0x3ca93cde	0.020658907
61	0xbd4d6ff8	-0.05015561
62	0xbe04e1a5	-0.12976702
63	0xbde9b552	-0.11411537
64	0xbdebe90b	-0.11519059
65	0x3dc3ee2f	0.09566914
66	0x3c885b80	0.016645193
67	0xbd8c6d45	-0.06856779
68	0x3dc10a1c	0.09425756
69	0xbdb98cf7	-0.0906009
70	0x3cc38f51	0.02387205
71	0x3d569dfa	0.052396752
72	0xbdb61604	-0.08890918
73	0xbc8f52aa	-0.017495472
74	0xbd33812a	-0.043824352
75	0x3db00a12	0.08595671
76	0xbd994bb5	-0.07485143
77	0xbd850b1b	-0.06496259
78	0x3d837d0b	0.064203344
79	0x3d3c4c97	0.04597148
80	0xbd8a9f89	-0.0676871
81	0x3c4b65a8	0.012414373
82	0xbdea1dfd	-0.11431501
83	0xbd8b4bd3	-0.06801572
84	0xbdd7bf4d	-0.105345346
85	0x3c3e6a3e	0.01162201
86	0x3b995d25	0.004680293
87	0x3ea6b3b6	0.32558984
88	0xbe0e19f2	-0.13877085
89	0xbd48d6a8	-0.049032837
90	0x3f179348	0.5920911
91	0x3eadd401	0.3395081
92	0x3e07777d	0.13229175
93	0x3da2543e	0.07926224
94	0x3db44e89	0.08804042
95	0xbda933c8	-0.082618296
96	0xbe0964ea	-0.13417402
97	0x3df4a620	0.11945748
98	0x3d4a6ab5	0.04941817
99	0xbe237b8d	-0.159651
100	0xbdd8cab3	-0.10585537
101	0xbc89e30f	-0.016831903
102	0x3c6ddc99	0.014517927
103	0x3eade87e	0.3396644
104	0x3f077daa	0.52926123
105	0xbd905b91	-0.07048715
106	0x3e3208a1	0.17386104
107	0xbc6eab43	-0.014567199
108	0x3e977112	0.29578453
109	0x3db02040	0.08599901
110	0x3d361dff	0.0444622
111	0xbd2994f8	-0.041401833
112	0xbde02c8a	-0.10945995
113	0x3dd0c548	0.101938784
114	0x3c8082aa	0.015687305
115	0xbb95ec71	-0.004575305
116	0xbc1c1e0b	-0.009528647
117	0xbdb72e8a	-0.089444235
118	0xbd47286c	-0.048622534
119	0xbd9a3a0c	-0.07530603
120	0x3d0390af	0.032120403
121	0x3d7ce2a1	0.061739568
122	0x3d92d636	0.07169764
123	0xbdc1d644	-0.09464696
124	0xbca01e83	-0.0195458
125	0x3d8e624a	0.06952341
126	0x3a9f94c4	0.0012175073
127	0xbd64fd84	-0.055905834
128	0xbe0269f7	-0.12735735
129	0xbd768921	-0.06018937
130	0x3dfe06ec	0.12403664
131	0x3d5986ed	0.05310719
132	0x3db1a672	0.08674325
133	0x3d814921	0.06312776
134	0x3d8b6e98	0.068082035
135	0x3d33131d	0.0437194
136	0xbd226a79	-0.03965232
137	0xbd34b872	-0.044121213
138	0xbdf49a38	-0.119434774
139	0xbd8851d7	-0.06656235
140	0x3da44938	0.08021778
141	0xbdc047a9	-0.09388668
142	0x3d072b9d	0.033000577
143	0xbdbe58cd	-0.09294281
144	0x3da25295	0.079259075
145	0x3d88d7ad	0.06681762
146	0xbc7dd971	-0.015493737
147	0x3e00b9da	0.12570897
148	0x3d81e078	0.06341642
149	0xbd0f9b1c	-0.035060033
150	0xbd0953d7	-0.03352722
151	0x3dc07812	0.093979016
152	0xbdc2cd39	-0.09511799
153	0xbc9c5aa5	-0.019086191
154	0x3dbe9a82	0.09306814
155	0x3ce22846	0.027607094
156	0xba88532e	-0.0010400766
157	0x3c8061e2	0.015671674
158	0xbcce84e5	-0.025209853
159	0xbd0046d0	-0.031317532
160	0x3de6bb00	0.11266136
161	0x3dcf09b7	0.10109275
162	0x3e09c9ba	0.13455859
163	0x3b9f2e3a	0.0048578056
164	0xbda5abe4	-0.08089426
165	0xbdaf1f77	-0.08550923
166	0xbd79e8b9	-0.061012957
167	0x3d675845	0.056480665
168	0xbd21808f	-0.039429244
169	0x3dd07c4a	0.10179956
170	0xbde767f0	-0.112991214
171	0x3d249967	0.04018536
172	0xbdaa3aed	-0.083120205
173	0x3d546597	0.051854696
174	0xbb5d0953	-0.0033727481
175	0xbdd42ad1	-0.10359729
176	0x3dd7168a	0.10502346
177	0xbda3d6a3	-0.07999923
178	0xbda946ff	-0.082654946
179	0x3c30bbad	0.010786933
180	0x3bd993c1	0.006639928
181	0xbcba2620	-0.022723258
182	0x3dc6f40a	0.097145155
183	0x3e098598	0.13429868
184	0xbd1e7987	-0.038690116
185	0x3bb0436a	0.00537913
186	0x3de0b5e8	0.10972196
187	0xbe16d610	-0.14730096
188	0xbd0c7124	-0.034287587
189	0xbc980634	-0.018557645
190	0x3d8928a2	0.06697203
191	0x3e391a74	0.18076497
192	0xbe092342	-0.13392356
193	0x3e14bf99	0.14526214
194	0xbcd9d86b	-0.026592454
195	0xbcb9b0dc	-0.022667341
196	0xbd864c25	-0.06557492
197	0xbd2b4467	-0.04181328
198	0x3d802882	0.06257726
199	0x3e1c8f88	0.15289128
200	0xbb804324	-0.003914254
201	0xbc40ae20	-0.011760265
202	0x3e837bb6	0.2568032
203	0x3be5d664	0.0070140827
204	0xbd073482	-0.03300906
205	0xbdf302dd	-0.118657805
206	0xbdcf0947	-0.101091914
207	0xbc214907	-0.009844071
208	0xbd248282	-0.040163524
209	0x3c09e47b	0.00841629
210	0xbde27b93	-0.11058726
211	0xbd07e940	-0.03318143
212	0x3d357473	0.044300508
213	0xbc7ead60	-0.0155442655
214	0x3d4d0b76	0.050059758
215	0x3d47b1ed	0.048753668
216	0x3e898481	0.26858905
217	0xbc8c070d	-0.017093206
218	0x3de60b86	0.11232667
219	0xbd2a55ef	-0.04158586
220	0x3d322d61	0.043500308
221	0xbcb7fde0	-0.022459924
222	0xbcecdcab	-0.028913816
223	0x3da80344	0.08203748
224	0xbd1788ba	-0.036995627
225	0x3cacbf90	0.021087438
226	0xbd3468a3	-0.0440451
227	0xbe289120	-0.16461611
228	0x3df1360d	0.117778875
229	0x3e0f674e	0.14004251
230	0xbcc23c78	-0.023710474
231	0xbd3bf6a6	-0.04588952
232	0x3d4ca603	0.04996301
233	0x3e0eb353	0.13935594
234	0xbd51526d	-0.051103998
235	0x3e28b02d	0.16473456
236	0x3e22cd97	0.15898739
237	0x3d9aab8b	0.075522505
238	0xbd926fa3	-0.07150199
239	0x3e844e70	0.25841093
240	0x3e6820dd	0.22668786
241	0x3e49e17d	0.19714923
242	0xbd9e2a60	-0.07722926
243	0xbe01290d	-0.12613316
244	0xbc30062e	-0.010743661
245	0xbc645bf1	-0.013937936
246	0xbcad67e1	-0.021167697
247	0x3ea85a66	0.3288147
248	0xbe14ea10	-0.14542413
249	0x3e0af6e6	0.13570747
250	0xbd81cc21	-0.063377626
251	0x3d791771	0.06081337
252	0xbd193b71	-0.037410203
253	0xbd0e0a7d	-0.03467797
254	0x3b073e70	0.002063658
255	0x3d95245e	0.07282327

layer.2.bias f4 [28]
0	0x3e924f40	0.28576088
1	0xbcf434fc	-0.029810421
2	0xbd841a37	-0.064503126
3	0x3e23adf7	0.15984331
4	0xbcd9cc5e	-0.026586708
5	0xbdb0be10	-0.086300015
6	0x3e256694	0.16152412
7	0x3dd9513d	0.10611198
8	0x3db9bea8	0.09069568
9	0x3dfa2e75	0.12215892
10	0x3dcd768d	0.100323774
11	0xbdcd3374	-0.100195795
12	0xbe006c6d	-0.12541361
13	0xbd8b4a4f	-0.068012826
14	0xbb88ed30	-0.0041786656
15	0x3e89bc34	0.269014
16	0x3c90401d	0.017608697
17	0x3e1fb07d	0.15594669
18	0xbd7aa5a6	-0.06119313
19	0xbd8a6fa6	-0.067595765
20	0x3e89fc10	0.2695012
21	0x3d099128	0.033585697
22	0xbdd9ffaf	-0.10644471
23	0xba04b9f6	-0.0005063111
24	0x3e33932f	0.17536615
25	0xbdd33e08	-0.10314566
26	0x3e0ff1b1	0.14057042
27	0x3e297eb0	0.16552234

layer.4.weight f4 [1, 28]
0	0x3f6d746c	0.9275577
1	0xbdfe2b96	-0.12410657
2	0xbda37de7	-0.07982998
3	0xbf87f6f1	-1.0622236
4	0x3d9d5b50	0.07683432
5	0xbd89e5f0	-0.0673331
6	0x3e8275d9	0.25480536
7	0xbeae1288	-0.33998513
8	0x3f143135	0.57887584
9	0xbec81af4	-0.39083064
10	0xbe15fe11	-0.146477
11	0xbc8bb7ca	-0.01705541
12	0x3c339b63	0.01096234
13	0xbdd95821	-0.106125124
14	0xbd87f865	-0.06639174
15	0x3ee98f8f	0.4561734
16	0x3d3b59e4	0.045740023
17	0xbf11780f	-0.5682382
18	0x3dfd6c39	0.123741575
19	0x3de3c635	0.11121789
20	0x3f1ee3ae	0.6206616
21	0xbe44ca10	-0.19217706
22	0xbdcc3050	-0.099701524
23	0xbe423536	-0.18965611
24	0xbed2324e	-0.41054004
25	0x3d7d697c	0.061868176
26	0x3e935687	0.28776953
27	0x3eaa0261	0.3320494
